model/graph_model.pt (torch, 595269 bytes, 9 tensors)

conv1.lin_l.weight f4 [128, 384]
-0.026959304 0.17974474 0.07974628 -0.003870797 0.090690814 -0.04567113 -0.043866497 0.03647374
0.038424823 0.014941993 -0.01356692 -0.044833142 -0.02971117 0.008473329 0.08919354 0.028680643
-0.02303714 -0.052934464 -0.009805244 0.044088196 -0.15350883 0.02535371 -0.0037211715 0.08567114
0.009619073 -0.08533965 0.06168558 -0.04939064 0.0807789 -0.02697369 0.047908917 -0.06365913
-0.026854655 0.08141532 0.07338885 0.03519806 0.18354322 0.012001005 0.03581296 -0.068226166
0.028263425 -0.027167825 0.053791627 0.021945965 0.06406314 0.0151939 0.010057301 0.06378045
0.04393486 -0.02059803 0.036944594 0.011479284 0.059283506 -0.017014803 -0.035664123 -0.0034110649
0.015948268 -0.041028723 -0.021545146 0.048115127 -0.015302405 0.014246818 -0.10089061 0.060215153
-0.034591515 -0.044181056 0.031069767 -0.011320121 0.08293443 -0.12656158 0.014053928 -0.08731771
-0.07205039 -0.01034952 -0.056612305 0.04880446 -0.021086384 0.007845518 0.059087764 -0.05850091
-0.012056566 0.118282095 0.0456389 0.13451827 -0.16993162 0.08539723 0.031400695 0.02408176
-0.017457688 0.026633695 0.16559088 -0.013775036 0.04710051 0.07310684 0.05593408 -0.013387387
0.015216947 0.06233304 -0.030290868 -0.07147829 0.05796039 -0.027448274 -0.16497888 0.05904996
-0.05796936 0.047263272 -0.040626284 -0.1162859 0.048548236 0.049966536 -0.02572523 -0.054170102
-0.016276253 -0.005896842 0.055590697 -0.009939442 -0.15618362 0.0022264095 0.015075127 -0.07044208
-0.034308277 0.044455033 -0.05303487 0.028428348 0.055089846 0.04202018 0.03369521 -2.19051e-05
0.044732172 -0.0011867263 -0.020958321 0.036331885 -0.054219782 -0.025231607 0.05327063 -0.0005485035
-0.05686704 0.065343514 -0.0015618735 -0.04494119 0.07411176 -0.0882213 -0.051985104 -0.008515646
-0.022830416 -0.047708236 -0.01342337 -0.036898628 -0.021247571 -0.0771509 -0.018739289 0.07601385
0.004435453 -0.041585524 0.015718622 0.04098851 -0.0093518905 0.045207966 -0.016355736 -0.024820343
-0.14508258 0.11698026 0.029377434 0.1129605 0.008801349 0.032777525 0.0005348799 0.12632637
-0.034861486 0.02780273 0.084705085 0.017030116 -0.011202848 -0.021378564 -0.042115465 -0.059257448
0.046857573 -0.06579116 -0.069857344 0.012052465 0.010265935 -0.18422297 0.014120274 0.0469797
0.0565271 -0.054192767 -0.034408256 0.05397644 -0.0468041 -0.0014104648 -0.04761546 0.15148853
-0.04104318 -0.115487896 -0.041543446 -0.00701181 0.029588081 0.09278076 -0.03941612 -0.009930966
0.016143834 0.07673419 -0.04108807 0.025824046 -0.009124485 0.057587482 -0.010986801 0.083721
0.14812016 -0.0065565826 0.14624397 0.0293439 0.06953072 0.0045601684 -0.14093924 -0.022934547
0.07950077 0.026620995 0.03750058 -0.0029037106 0.018445438 -0.008766639 0.025796082 8.910089e-06
0.07597283 0.028591841 -0.10418053 -0.033019613 -0.043328166 0.060537256 0.09535755 -0.027391776
0.022939706 0.0021165314 0.07476015 0.0743396 0.024318416 0.035018276 -0.0115520265 -0.04406988
0.0773101 -0.07079778 -0.10984081 0.0649261 -0.11109661 -0.050656915 -0.0035482375 0.047385182
0.058590982 -0.113324165 -0.07042205 -0.19623366 0.046657026 -0.00061090273 -0.04921945 0.01136337
00000000: c2d9 dcbc 010f 383e 0552 a33d 33ad 7dbb
00000010: 1bbc b93d a711 3bbd 5bad 33bd 7d65 153d
00000020: 5963 1d3d 43cf 743c c947 5ebc f5a2 37bd
00000030: d764 f3bc b8d3 0a3c 1aab b63d abf3 ea3c
00000040: 62b8 bcbc cfd1 58bd 2da6 20bc d395 343d
00000050: 6b31 1dbe 95b2 cf3c e6de 73bb 5a74 af3d
00000060: 5199 1d3c 8ec6 aebd 05aa 7c3d d74d 4abd
00000070: 686f a53d eef7 dcbc 243c 443d b85f 82bd
00000080: 4bfe dbbc 13bd a63d e54c 963d d72b 103d
00000090: c1f2 3b3e dd9f 443c 9cb0 123d 29ba 8bbd
000000a0: b388 e73c 0f8f debc 9c54 5c3d 06c8 b33c
000000b0: 8933 833d d6ef 783c 61c7 243c 539f 823d
000000c0: 0af5 333d 33bd a8bc 3753 173d 9b13 3c3c
000000d0: 43d3 723d a162 8bbc 8b14 12bd 2c8c 5fbb
000000e0: f1a5 823c bc0d 28bd 727f b0bc 5e14 453d
000000f0: f0b6 7abc 7c6b 693c bc9f cebd 2aa4 763d
00000100: d5af 0dbd 32f7 34bd 0686 fe3c 0778 39bc
00000110: 87d9 a93d 5c99 01be 7242 663c a1d3 b2bd
00000120: 288f 93bd 0891 29bc 4ee2 67bd 2fe7 473d
00000130: 5abd acbc 7d8a 003c 0306 723d a69e 6fbd
00000140: e788 45bc e23d f23d dbef 3a3d 28bf 093e
00000150: 8e02 2ebe bee4 ae3d 049e 003d 1c47 c53c
00000160: 6d03 8fbc e82e da3c a890 293e b0b0 61bc
00000170: 77ec 403d 0ab9 953d 221b 653d c556 5bbc
00000180: 8050 793c ee50 7f3d 8e24 f8bc 3663 92bd
00000190: e067 6d3d 34db e0bc 39f0 28be 5fde 713d
000001a0: 4871 6dbd 2297 413d bf67 26bd 4d27 eebd
000001b0: 84da 463d b6a9 4c3d b8bd d2bc 78e1 5dbd
000001c0: c755 85bc 4c3a c1bb 12b3 633d 0bd9 22bc
000001d0: 99ee 1fbe f4e8 113b aafd 763c f043 90bd
000001e0: d686 0cbd 7b16 363d 183b 59bd 91e2 e83c
000001f0: e4a5 613d 5a1d 2c3d fd03 0a3d d8c0 b7b7
00000200: 1539 373d ed8b 9bba c9b0 abbc bed0 143d
00000210: 9015 5ebd 84b2 cebc 4e32 5a3d 72c9 0fba
00000220: 6aed 68bd d2d2 853d c7b7 ccba 4114 38bd
00000230: e8c7 973d 5ead b4bd 55ee 54bd 3585 0bbc
00000240: da06 bbbc b669 43bd b2ed 5bbc 0423 17bd
00000250: 630f aebc 4b01 9ebd 2383 99bc 26ad 9b3d
00000260: 4757 913b 9555 2abd 57c4 803c 91e3 273d
00000270: ac38 19bc fd2b 393d 77fc 85bc 0854 cbbc
00000280: 8790 14be 5993 ef3d f2a8 f03c d657 e73d
00000290: 8933 103c ba41 063d 2f37 0c3a b35b 013e
000002a0: ebca 0ebd 8dc2 e33c dc79 ad3d be82 8b3c
000002b0: 268c 37bc 1922 afbc 4481 2cbd f0b7 72bd
000002c0: baed 3f3d 84bd 86bd 5e11 8fbd b477 453c
000002d0: 7432 283c f2a4 3cbe b958 673c c96d 403d
000002e0: f688 673d 3cf9 5dbd acef 0cbd 6616 5d3d
000002f0: a8b5 3fbd 58df b8ba 6e08 43bd cf1f 1b3e
00000300: e51c 28bd eb84 ecbd 7629 2abd 53c3 e5bb
00000310: b462 f23c d703 be3d cc72 21bd 7eb5 22bc
00000320: 1340 843c d126 9d3d f74b 28bd f38c d33c
00000330: dd7e 15bc dae0 6b3d fc01 34bc ea75 ab3d
00000340: d0ac 173e 9ad8 d6bb fbc0 153e 9e62 f03c
00000350: 1f66 8e3d 776d 953b 6052 10be 3be1 bbbc
00000360: 4dd1 a23d 4614 da3c 359a 193d 2e4c 3ebb
00000370: e31a 973c f3a1 0fbc 4e52 d33c 8a7c 1537
00000380: a597 9b3d 7039 ea3c 9a5c d5bd 933f 07bd
00000390: e078 31bd eaf5 773d d24a c33d b864 e0bc
000003a0: 0dec bb3c 81b5 0a3b d91b 993d 5c3f 983d
000003b0: 6a37 c73c 536f 0f3d b644 3dbc 9e82 34bd
000003c0: c254 9e3d 6dfe 90bd 38f4 e0bd faf7 843d
000003d0: 9f86 e3bd a07d 4fbd 8c89 68bb f716 423d
000003e0: 19fd 6f3d 8016 e8bd 7039 90bd 7af1 48be
000003f0: 701b 3f3d fd24 20ba 569a 49bd 6e2d 3a3c

conv1.lin_l.bias f4 [128]
-0.0047044777 0.0038629305 0.0444872 0.02275636 -0.034711804 0.017770607 -0.034005314 -0.053870805
-0.11060203 -0.051137436 -0.036221933 -0.042009372 -0.016759446 -0.055565365 0.030580478 -0.054587837
-0.05938399 0.048422508 0.00023411523 -0.066736564 -0.02491536 0.0026950857 -0.03548734 0.03861728
0.056692965 -0.04893654 0.013604447 -0.04452063 -0.08509388 0.06784744 -0.016988486 -0.054363612
0.02992058 0.030935254 -0.058465127 -0.051063426 -0.026680378 0.02960929 -0.0037109947 -0.03428313
-0.0390233 0.056338597 0.0040211612 -0.037599497 -0.042407904 0.026049238 -0.038791027 -0.06973411
-0.018273227 0.085785255 0.017476717 -0.04571246 -0.026946789 -0.0073659644 -0.066280186 -0.073161826
-0.057150323 -0.04037963 -0.013301336 -0.04734598 -0.04163183 -0.112456076 0.009475536 0.00057896104
-0.045654073 -0.024927758 -0.0002202408 -0.04621995 0.026455525 0.006300765 0.01461549 0.0122575965
0.0437369 -0.029778972 -0.0037470683 -0.018653251 -0.047847908 -0.016000936 -0.030451644 0.04785663
-0.07924301 -0.013272509 -0.04205981 -0.04151353 0.018109692 -0.046089105 -0.004853503 -0.04483753
0.03088443 -0.03737046 0.01214173 -0.074101314 -0.013451084 -0.027859762 0.00023885362 -0.04313353
-0.048272744 0.0007198991 0.0082637025 0.0038155445 -0.059203837 0.026066039 -0.04791061 0.018041896
-0.009169477 -0.014432777 -0.0440073 0.002538436 -0.07756835 0.051011484 -0.019007917 -0.004808135
-0.051961496 -0.06682388 -0.006925066 -0.022317188 -0.07376177 0.010837605 -0.026162013 0.010304831
0.0016072947 -0.0010482557 -0.025080768 -0.019737894 0.019221256 0.032095995 0.052979756 -0.04436463
00000000: 0528 9abb 3829 7d3b 3638 363d 8c6b ba3c
00000010: f72d 0ebd aa93 913c 2849 0bbd a2a7 5cbd
00000020: 5183 e2bd 7d75 51bd 735d 14bd 0512 2cbd
00000030: 1b4b 89bc 8298 63bd e983 fa3c 7f97 5fbd
00000040: a03c 73bd ae56 463d d47c 7539 2ead 88bd
00000050: 4c1b ccbc 09a0 303b 2c5b 11bd 272d 1e3d
00000060: e236 683d ae71 48bd 30e5 5e3c 445b 36bd
00000070: b345 aebd 99f3 8a3d 702b 8bbc 61ac 5ebd
00000080: 011c f53c ee6b fd3c 2179 6fbd e227 51bd
00000090: cf90 dabc 2f8f f23c 2934 73bb 786c 0cbd
000000a0: e5d6 1fbd 4dc3 663d f2c3 833b ee01 1abd
000000b0: e9b3 2dbd 3665 d53c 57e3 1ebd c2d0 8ebd
000000c0: bcb1 95bc 2eb0 af3d 552b 8f3c fd3c 3bbd
000000d0: 83bf dcbc 305e f1bb e8bd 87bd ded5 95bd
000000e0: 7516 6abd 1c65 25bd d9ed 59bc dced 41bd
000000f0: 2386 2abd 5f4f e6bd 473f 1b3c 6bc5 173a
00000100: c4ff 3abd 4c35 ccbc 71f0 66b9 2151 3dbd
00000110: 42b9 d83c a676 ce3b cf75 6f3c 16d4 483c
00000120: 7725 333d 08f3 f3bc 6091 75bb b4ce 98bc
00000130: 2bfc 43bd 6514 83bc ba75 f9bc 5005 443d
00000140: 294a a2bd f074 59bc e846 2cbd 170a 2abd
00000150: c75a 943c eec7 3cbd 220a 9fbb 8fa7 37bd
00000160: 5801 fd3c c411 19bd 1bee 463c 6ec2 97bd
00000170: ef61 5cbc 283a e4bc c874 7a39 c9ac 30bd
00000180: a4b9 45bd 9cb7 3c3a 7b64 073c 370e 7a3b
00000190: b97f 72bd 7288 d53c ea3d 44bd 99cc 933c
000001a0: 933b 16bc 7477 6cbc 0041 34bd e45b 263b
000001b0: 28dc 9ebd 6bf1 503d 7eb6 9bbc 8f8d 9dbb
000001c0: 94d5 54bd f5da 88bd aaeb e2bb 89d2 b6bc
000001d0: 6910 97bd 3690 313c b851 d6bc 98d5 283c
000001e0: dcab d23a a065 89ba 2f76 cdbc 5db1 a1bc
000001f0: e575 9d3c 1777 033d 4d01 593d b0b7 35bd

conv1.lin_r.weight f4 [128, 384]
0.037164856 0.115238026 -0.13460083 -0.19753258 0.00032220408 -0.08801115 0.054362155 0.16968785
-0.0685764 -0.1146762 0.042232666 -0.046178218 0.0105790505 0.16440314 -0.08573557 0.0925978
-0.028683195 -0.025247425 -0.0087267235 -0.086692594 -0.0048492886 0.09911248 -0.093334325 0.062505834
-0.10763638 0.10113094 0.032513246 -0.060996026 0.0017872578 0.11790699 -0.07780319 0.01991181
0.08741894 0.15023054 0.07246486 -0.13214985 0.19507447 0.0026890123 0.058527905 0.02040479
0.016954469 -0.10501858 0.026635626 0.06254411 -0.019084433 -0.045532618 -0.067522965 -0.02396147
-0.019953413 0.13825656 -0.07998219 0.07302528 -0.028982788 -0.06620185 -0.005944773 0.04000452
0.21180773 -0.10422706 -0.09207891 -0.03572399 -0.020407733 0.010256771 -0.04630992 0.07309138
-0.045764495 0.16871466 -0.09286743 -0.14520445 0.17522025 -0.07066882 -0.027150821 0.016238887
0.098640405 -0.028209716 -0.22680128 0.020697597 -0.00033462374 -0.0029027122 -0.02916575 -0.13487433
-0.09108656 -0.1795926 0.14654636 0.18494342 0.046074223 0.012855065 0.109277904 0.14581455
0.05791723 0.17962098 0.060287707 -0.22384122 0.15519768 0.01830685 -0.065067574 0.21385697
0.0056247367 -0.012113783 0.01379088 -0.0013993108 0.16738082 0.031636223 -0.03983166 0.031474132
-0.05359591 0.05215958 -0.013276614 -0.15829994 0.0074213576 -0.08108477 0.16130318 0.014633831
0.0755418 -0.13567221 -0.02925526 -0.13987744 -0.22685647 -0.082418524 -0.06706602 -0.07184651
0.08268313 0.14070585 -0.09410172 -0.08875681 0.08155303 0.069585495 0.06952809 6.72162e-05
-0.01269964 -0.008431402 0.03486207 0.03460709 -0.024056736 -0.015440802 -0.17198753 0.0001838252
0.048028674 0.08652085 0.0017267093 -0.009716663 -0.0015690818 -0.05796541 -0.03452378 0.1449453
0.01387932 0.01865518 -0.16056252 0.08278221 0.0039172117 -0.03558498 0.035401076 0.0101117445
0.14067017 0.06214634 0.014844717 0.040420417 0.10848614 0.13625921 -0.002359494 -0.03658099
0.0154872155 0.114140645 -0.017242067 0.004775443 -0.12022807 0.00293289 0.10960089 0.054988354
-0.09303175 -0.06525831 -0.022117855 -0.04478668 0.019682731 0.02203965 -0.12656501 -0.03847316
0.073285036 0.090273246 0.11017296 0.064885706 -0.031334087 -0.095714994 -0.08234782 0.06038085
0.03944731 0.005544479 -0.04788309 0.06133187 -0.137103 0.0013117096 -0.05918846 0.06149373
-0.05799106 -0.13249524 -0.09022985 0.061395068 -0.06602122 0.16235864 0.0050706533 0.045024574
0.11647128 0.1713097 0.06064617 0.03373401 0.07866461 -0.058704518 -0.22385304 -0.09190793
-0.15603332 -0.18069938 0.100990154 0.019234188 0.120369256 0.015656313 -0.06678532 0.036419045
-0.011915315 -0.13922484 -0.03885622 0.19561604 -0.19349782 0.026602812 0.13493715 -0.000120450626
0.08620454 -0.04092982 0.005379365 -0.16854864 -0.04374891 -0.042018272 -0.02918488 0.14368932
0.14979361 -0.023327652 -0.1164356 0.023673818 -0.08866422 -0.17910507 -0.16134258 0.057958685
-0.031828832 -0.061522223 -0.11508484 0.06758283 -0.11898644 0.010583352 -0.09927425 0.029683977
0.0029582211 -0.08343599 0.09473758 -0.03244567 0.19349629 -0.045616247 -0.018004546 -0.003064063
00000000: 2d3a 183d ea01 ec3d cdd4 09be fb45 4abe
00000010: 80ed a839 313f b4bd daaa 5e3d a7c2 2d3e
00000020: c971 8cbd 5bdb eabd 29fc 2c3d 5f25 3dbd
00000030: c153 2d3c 4c59 283e 2196 afbd eaa3 bd3d
00000040: 05f9 eabc b0d3 cebc 88fa 0ebc e38b b1bd
00000050: c8e6 9ebb 7cfb ca3d 1126 bfbd 0f03 803d
00000060: 7670 dcbd bd1d cf3d 9c2c 053d f8d6 79bd
00000070: 6c42 ea3a 3879 f13d 4757 9fbd 181e a33c
00000080: b408 b33d 09d6 193e 7568 943d 4a52 07be
00000090: 9ac1 473e 243a 303b f5ba 6f3d f227 a73c
000000a0: 19e4 8a3c fb13 d7bd f532 da3c 2017 803d
000000b0: f556 9cbc 6980 3abd 7b49 8abd d84a c4bc
000000c0: 5775 a3bc 2193 0d3e b4cd a3bd 478e 953d
000000d0: 506d edbc d694 87bd 5fcc c2bb c8db 233d
000000e0: 20e4 583e ff74 d5bd de93 bcbd 5253 12bd
000000f0: 1e2e a7bc 040c 283c 78af 3dbd efb0 953d
00000100: 8d73 3bbd 89c3 2c3e 4731 bebd 7ab0 14be
00000110: f06c 333e d0ba 90bd 666b debc 6a07 853c
00000120: fb03 ca3d 1018 e7bc 983e 68be 028e a93c
00000130: 7070 afb9 6e3b 3ebb 03ed eebc 7f1c 0abe
00000140: 978b babd 1fe7 37be 4010 163e cf61 3d3e
00000150: 53b8 3c3d 0d9e 523c 18cd df3d 6950 153e
00000160: 9e3a 6d3d 90ee 373e 3ef0 763d a236 65be
00000170: 24ec 1e3e 3ff8 953c 2642 85bd 52fd 5a3e
00000180: b64f b83b e378 46bc 25f3 613c 1469 b7ba
00000190: e165 2b3e fc94 013d 8626 23bd 05eb 003d
000001a0: 6387 5bbd 49a5 553d 2886 59bc 6119 22be
000001b0: dc2e f33b c60f a6bd a92c 253e bcc2 6f3c
000001c0: a9b5 9a3d a8ed 0abe baa8 efbc 083c 0fbe
000001d0: 104d 68be 0bcb a8bd e959 89bd 4324 93bd
000001e0: c655 a93d 3215 103e 67b8 c0bd 21c6 b5bd
000001f0: 4605 a73d d782 8e3d be64 8e3d 6cf6 8c38
00000200: 2712 50bc dd23 0abc 88cb 0e3d 2ac0 0d3d
00000210: a212 c5bc 6bfb 7cbc 801d 30be 34c1 4039
00000220: b7b9 443d d831 b13d c052 e23a a332 1fbc
00000230: a6a9 cdba 236d 6dbd cf68 0dbd 8a6c 143e
00000240: 1666 633c c0d2 983c 806a 24be b889 a93d
00000250: f45b 803b 8ec1 11bd b800 113d bbab 253c
00000260: d70b 103e 298d 7e3d 4237 733c e18f 253d
00000270: fb2d de3d 8987 0b3e bea1 1abb f3d5 15bd
00000280: 17be 7d3c 92c2 e93d 3c3f 8dbc 527b 9c3b
00000290: 223a f6bd bb35 403b 6e76 e03d 783b 613d
000002a0: 6e87 bebd 26a6 85bd 8130 b5bc 3d72 37bd
000002b0: ae3d a13c 7f8c b43c 429a 01be 0896 1dbd
000002c0: 7716 963d 2ee1 b83d 5ca2 e13d cce2 843d
000002d0: 2c58 00bd 3906 c4bd f9a5 a8bd e951 773d
000002e0: 8193 213d 76ae b53b 0f21 44bd 2037 7b3d
000002f0: bb64 0cbe aced ab3a 996f 72bd d9e0 7b3d
00000300: 0988 6dbd d5ac 07be 6dca b8bd 6579 7b3d
00000310: 2236 87bd 5841 263e b927 a63b b06b 383d
00000320: 7f88 ee3d cf6b 2f3e 1e68 783d ac2c 0a3d
00000330: e91a a13d 2674 70bd bb39 65be 3a3a bcbd
00000340: 33c7 1fbe 4209 39be edd3 ce3d 0491 9d3c
00000350: 2884 f63d ab41 803c bec6 88bd 232c 153d
00000360: 7438 43bc f590 0ebe b327 1fbd 924f 483e
00000370: 4b24 46be 24ee d93c f72c 0a3e 709a fcb8
00000380: 028c b03d 07a6 27bd 6245 b03b 0498 2cbe
00000390: 0f32 33bd 5a1b 2cbd 2115 efbc 4b23 133e
000003a0: 7f63 193e a219 bfbc ca75 eebd 98ef c13c
000003b0: 9695 b5bd 5267 37be fd36 25be 1666 6d3d
000003c0: f35e 02bd bafe 7bbd 9ab1 ebbd de68 8a3d
000003d0: 2aaf f3bd cc65 2d3c 4c50 cbbd d02b f33c
000003e0: b7de 413b 7de0 aabd c705 c23d c0e5 04bd
000003f0: e423 463e 1ad8 3abd 457e 93bc 72ce 48bb

conv2.lin_l.weight f4 [128, 128]
-0.09060666 -0.062416535 -0.0016934721 -0.01522843 -0.041400272 -0.032033853 -0.06914974 -0.08041055
-0.000377442 -0.037673324 -0.008691026 -0.027435016 -0.09524501 -5.4627613e-05 -0.008035456 -0.0869492
-0.069529794 -0.026443984 -0.067624286 0.05749774 -0.027423184 -0.05645622 -0.03630064 -0.05947367
-0.05075481 -0.054721106 -0.040510695 0.0090441825 -0.0056150584 -0.16368498 -0.08846796 -0.034005832
-0.098219916 -0.04142278 -0.043613177 0.003917747 -0.010944225 -0.07399561 -0.08037889 -0.041878678
-0.0021470203 -0.07685659 -0.010969457 -0.042785402 -0.056500312 -0.110295296 -0.011926257 -0.006736801
-0.008278061 -0.029487953 -0.16596581 -0.02977596 -0.0023004168 -0.052050553 -0.07158329 -0.020900141
0.023737973 0.0017803775 -0.0284731 -0.022219565 -0.027890526 -0.00579458 -0.0221655 -0.1104496
-0.046317257 -0.012101473 -0.042571947 0.003336886 -0.103940375 -0.02045665 -0.047395937 -0.050272394
-0.024140852 -0.08669007 -0.091829665 0.0045895167 0.00828488 -0.04731981 -0.014561797 -0.08718126
-0.00019811733 -0.011031198 -0.025804952 0.0040496355 -0.021996299 0.020976763 -0.012869506 -0.00944745
-0.012056724 -0.007191241 -0.073364 -0.09635462 -0.03481731 -0.07740089 -0.019320695 -0.0017960236
-0.0072264737 -0.083118826 -0.048889484 -0.06500131 -0.064297475 -0.05421379 -0.016032755 -0.06427122
-0.067573585 0.006276387 -0.040234588 -0.041513048 -0.00042972533 -0.042867914 0.0018189852 -0.06732368
0.039326243 0.009464907 -0.12903973 0.008911267 -0.03183375 -0.033306323 0.0065171043 -0.017065393
-0.0881268 -0.08181254 -0.1028712 -0.015632022 -0.007953777 -0.1278326 0.025739428 -0.043586798
-0.045332648 -0.00756714 -0.046972107 -0.018017722 -0.04720677 -0.0073432764 -0.0472989 -0.02522333
0.00010246511 0.010650016 -0.022482743 -0.05941453 -0.04517597 9.253495e-05 -0.02028748 -0.04403471
-0.015307431 -0.029803969 -0.02310558 -0.0010365419 -0.022438547 -0.040865798 -0.022884833 -0.01518889
-0.016582552 -0.02844907 -0.02786562 -0.01577683 -0.0042157574 -0.011161356 -0.03972934 -0.04905045
-0.05581955 -0.028320856 -0.025419582 0.0030919588 -0.025568034 -0.010265244 -0.07098922 -0.033877905
-0.021140313 -0.01702797 -0.019427227 -0.03623076 -0.045894098 -0.04306922 -0.014276839 -0.043831218
-0.05474797 -0.037861973 -0.04524554 -0.02907323 -0.014216176 -0.032659464 -0.015908262 -0.03758001
-0.00021666409 -0.0032191153 -0.0005669178 -0.011001269 -0.044037808 0.00019763202 -0.047688816 -0.0028066204
-0.029948292 -0.023706917 -0.03477912 -0.06468312 -0.00024416426 -0.05334359 -0.027258549 -0.026781164
-0.05352711 0.005749432 -0.067330584 -0.056222025 -0.04940081 -0.013530133 -0.046136755 -0.021008864
-0.034349978 -0.034774918 -0.01897665 -0.039716028 -0.06923463 -0.014078782 -0.028946 -0.00011954692
-0.1116325 -0.02723028 -0.027999777 -0.00090819405 -0.012548607 -0.057676926 -0.03395556 -0.00285536
-0.03203417 -0.022098979 -0.05048663 -0.00065208354 -0.049857676 -0.004774756 0.00084544416 -0.0007032483
-0.012342469 -0.048513897 -0.031390227 -0.017509684 -0.00036326487 -0.045384943 -0.016378775 -0.035776082
-0.015256836 -0.039117165 -0.031513613 -0.001876757 0.0013106505 -0.010606361 -0.04803964 -0.00025206304
-0.05355785 -0.04283962 -0.07231943 -0.062976845 -0.012647935 -0.02338408 -0.014858095 -0.041974615
00000000: fc8f b9bd 7ba8 7fbd 7ff7 ddba aa80 79bc
00000010: 5593 29bd ee35 03bd 619e 8dbd 49ae a4bd
00000020: 68e3 c5b9 584f 1abd ce64 0ebc 66bf e0bc
00000030: d10f c3bd f41f 65b8 25a7 03bc 6c12 b2bd
00000040: a365 8ebd 0ea1 d8bc 9a7e 8abd c082 6b3d
00000050: 96a6 e0bc a33e 67bd fbaf 14bd aa9a 73bd
00000060: 47e4 4fbd 3d23 60bd 8bee 25bd 0d2e 143c
00000070: 86fe b7bb 099d 27be b12e b5bd b349 0bbd
00000080: 8627 c9bd efaa 29bd bba3 32bd 7260 803b
00000090: 684f 33bc 038b 97bd b09d a4bd fa88 2bbd
000000a0: 06b5 0cbb fd66 9dbd 3db9 33bc bf3f 2fbd
000000b0: df6c 67bd 80e2 e1bd 5966 43bc 62c0 dcbb
000000c0: b4a0 07bc b890 f1bc f1f2 29be b7ec f3bc
000000d0: 97c2 16bb f632 55bd 439a 92bd c636 abbc
000000e0: 2376 c23c 8e5b e93a 6b40 e9bc ce05 b6bc
000000f0: ac7a e4bc 76e0 bdbb 6c94 b5bc 6633 e2bd
00000100: 2ab7 3dbd 4245 46bc ec5f 2ebd a8af 5a3b
00000110: b1de d4bd b494 a7bc 3e22 42bd 6dea 4dbd
00000120: 09c3 c5bc 908a b1bd 3111 bcbd a863 963b
00000130: 4ebd 073c 6bd2 41bd 9a94 6ebc 178c b2bd
00000140: b7bd 4fb9 33bc 34bc e864 d3bc ceb2 843b
00000150: 9531 b4bc 76d7 ab3c 9fda 52bc 7ac9 1abc
00000160: 9189 45bc 80a4 ebbb dd3f 96bd 9255 c5bd
00000170: 989c 0ebd 5c84 9ebd 6f46 9ebc 8d68 ebba
00000180: 0ecc ecbb 343a aabd 5740 48bd 681f 85bd
00000190: 65ae 83bd 470f 5ebd 2057 83bc a1a0 83bd
000001a0: 0564 8abd 26aa cd3b 06cd 24bd 9609 2abd
000001b0: c24c e1b9 4496 2fbd 046b ee3a ffe0 89bd
000001c0: 8e14 213d b312 1b3c fe22 04be 9000 123c
000001d0: 1b64 02bd 366c 08bd 6f8d d53b b9cc 8bbc
000001e0: d37b b4bd 558d a7bd 23ae d2bd ba0e 80bc
000001f0: 8f50 02bc 8de6 02be 7edb d23c 1288 32bd
00000200: baae 39bd c5f5 f7bb d365 40bd e799 93bc
00000210: e35b 41bd de9f f0bb 7ebc 41bd 28a1 cebc
00000220: 89e2 d638 687d 2e3c bb2d b8bc a65c 73bd
00000230: 700a 39bd 530f c238 ee31 a6bc bd5d 34bd
00000240: 05cc 7abc 7427 f4bc ea47 bdbc 93dc 87ba
00000250: 0bd1 b7bc e562 27bd f978 bbbc d2da 78bc
00000260: 22d8 87bc 060e e9bc 7146 e4bc 693e 81bc
00000270: 5624 8abb 1fde 36bc 3bbb 22bd 20e9 48bd
00000280: 0aa3 64bd 2401 e8bc ba3c d0bc 76a2 4a3b
00000290: 0e74 d1bc 8e2f 28bc cc62 91bd 8fc3 0abd
000002a0: 732e adbc 3e7e 8bbc d925 9fbc b566 14bd
000002b0: 73fb 3bbd 5a69 30bd 67e9 69bc 5d88 33bd
000002c0: 683f 60bd 2815 1bbd 6353 39bd fc2a eebc
000002d0: f7ea 68bc eec5 05bd 0b52 82bc 7fed 19bd
000002e0: 5330 63b9 cbf7 52bb 369d 14ba ab3e 34bc
000002f0: fd60 34bd 713b 4f39 5955 43bd 47ef 37bb
00000300: 1f56 f5bc 0235 c2bc 8d74 0ebd 9578 84bd
00000310: 2c03 80b9 cf7e 5abd 524d dfbc 2c64 dbbc
00000320: 3e3f 5bbd bb65 bc3b 9ee4 89bd 1149 66bd
00000330: 8158 4abd 7ead 5dbc e5f9 3cbd c81a acbc
00000340: 90b2 0cbd 2570 0ebd eb74 9bbc 46ad 22bd
00000350: e3ca 8dbd b1aa 66bc 2920 edbc 44b5 fab8
00000360: 959f e4bd 0912 dfbc ca5f e5bc df13 6eba
00000370: ac98 4dbc a43e 6cbd fc14 0bbd fe20 3bbb
00000380: 4336 03bd eb08 b5bc 12cb 4ebd 96f0 2aba
00000390: 9037 4cbd 8e75 9cbb cca0 5d3a 325a 38ba
000003a0: 1138 4abc 82b6 46bd 0a93 00bd 7870 8fbc
000003b0: 9674 beb9 90e5 39bd c82c 86bc f189 12bd
000003c0: cff7 79bc 5239 20bd 6b14 01bd 84fd f5ba
000003d0: 22ca ab3a 4dc6 2dbc 37c5 44bd 5427 84b9
000003e0: 7a5f 5bbd 9978 2fbd 361c 94bd 01fa 80bd
000003f0: 4939 4fbc f88f bfbc 5e6f 73bc 93ed 2bbd

conv2.lin_l.bias f4 [128]
-0.04315779 -0.06893635 -0.073487215 0.041023374 -0.049196735 -0.06522421 0.04248758 0.027950447
-0.007753699 0.027057298 -0.010758222 0.02588171 0.008490008 -0.010750037 -0.01385408 0.0026305723
-0.003545791 0.008175075 -0.037462518 0.0059598754 -0.08770459 -0.0830651 -0.07132126 -0.048490267
-0.10410754 -0.029571822 -0.0071509425 -0.011565733 -0.046543393 0.037774336 -0.06775987 0.022042515
-0.009069789 -0.058665577 -0.044778034 -0.0018149967 0.007187703 0.050663095 0.020600218 0.014703093
-0.084159836 -0.066138215 0.018466529 -0.039420858 0.024235452 0.040411886 -0.01639006 -0.090037726
-0.09138081 -0.088361435 -0.09962111 0.057408642 0.049247634 -0.038976714 0.014671041 -0.04365787
-0.074524775 0.0010689185 -0.053750426 -0.06120713 -0.007668493 -0.10337955 -0.09322273 -0.0363151
-0.06756168 -0.058834746 0.047071055 -0.04536335 -0.053319197 -0.008520381 -0.08676702 -0.0023265132
-0.044092607 -0.018076994 -0.029353574 0.03876525 -0.013827676 -0.115248844 -0.005864314 -0.07366573
0.012348394 -0.04248121 0.024997242 -0.041536134 -0.016153682 -0.04572221 -0.08034368 0.008676374
-0.006617702 -0.07831196 -0.0061983275 0.0295829 -0.006867443 -0.08197673 -0.0027154908 0.004781497
0.03499285 -0.0529236 -0.0129925385 0.006539482 -0.121557325 -0.053575747 0.021223765 0.02515864
0.05168837 0.048290126 -0.107716836 -0.08215898 -0.09092162 -0.062132593 0.017212247 0.0030404488
0.02771728 -0.06580488 0.013472999 -0.067524076 0.040443413 -0.034432895 0.042379316 -0.001851887
0.020223495 -0.060907055 0.044874955 -0.071539976 0.018853234 0.054277416 -0.09874252 -0.0063007576
00000000: 39c6 30bd 802e 8dbd 7780 96bd 2008 283d
00000010: 8482 49bd 4594 85bd 7507 2e3d 56f8 e43c
00000020: be12 febb 44a7 dd3c 4143 30bc e105 d43c
00000030: ad19 0b3c ec20 30bc 39fc 62bc ae65 2c3b
00000040: 8060 68bb c0f0 053c 4c72 19bd 0f4b c33b
00000050: 779e b3bd 091e aabd e110 92bd bb9d 46bd
00000060: 5536 d5bd 9b40 f2bc 7452 eabb 337e 3dbc
00000070: 49a4 3ebd 43b9 1a3d b0c5 8abd 8192 b43c
00000080: 7499 14bc 514b 70bd 2c69 37bd 2fe5 edba
00000090: d386 eb3b 1b84 4f3d cac1 a83c 3ee5 703c
000000a0: fe5b acbd 7973 87bd 1e47 973c c477 21bd
000000b0: 6d89 c63c ef86 253d 7244 86bc b365 b8bd
000000c0: dd25 bbbd d7f6 b4bd 2706 ccbd 5325 6b3d
000000d0: e3b7 493d 0ca6 1fbd ce5e 703c 98d2 32bd
000000e0: 72a0 98bd f41a 8c3a 6829 5cbd 54b4 7abd
000000f0: fb47 fbbb a8b8 d3bd 8feb bebd 24bf 14bd
00000100: c75d 8abd b4fc 70bd 94cd 403d ecce 39bd
00000110: 3b65 5abd 1199 0bbc e8b2 b1bd 6a78 18bb
00000120: 739a 34bd 3416 94bc e876 f0bc 50c8 1e3d
00000130: 7a8d 62bc 9607 ecbd 6e29 c0bb 0fde 96bd
00000140: eb50 4a3c c700 2ebd 04c7 cc3c cb21 2abd
00000150: ba54 84bc 3647 3bbd 3a8b a4bd 5a27 0e3c
00000160: 4fd9 d8bb 0562 a0bd 571b cbbb d757 f23c
00000170: 4a08 e1bb 6ae3 a7bd 60f6 31bb 1bae 9c3b
00000180: aa54 0f3d 6bc6 58bd a8de 54bc 2749 d63b
00000190: 0cf3 f8bd 3e72 5bbd 76dd ad3c 7e19 ce3c
000001a0: 2fb7 533d decb 453d a59a dcbd f842 a8bd
000001b0: 1d35 babd bf7e 7ebd b300 8d3c 4442 473b
000001c0: 590f e33c b5c4 86bd dbbd 5c3c 104a 8abd
000001d0: fea7 253d 8209 0dbd ef95 2d3d 04bb f2ba
000001e0: beab a53c ad79 79bd cdce 373d 8d83 92bd
000001f0: 1972 9a3c ff51 5e3d 8539 cabd 9676 cebb

conv2.lin_r.weight f4 [128, 128]
-0.036981 0.1371889 0.033842217 -0.0038262713 -0.13113539 -0.04302742 0.18000184 -0.10338553
0.0018732413 -0.10837056 -0.055244945 -0.007873184 0.018537275 -0.2853115 -0.005823304 -0.16617481
0.2689653 0.15020233 0.115694016 0.12017186 -0.010640895 -0.029379036 -0.122895345 -0.19713736
-0.11969289 0.035555784 -0.032675028 -0.19621973 -0.028288435 -0.11840696 -0.010191119 -0.08233958
0.14220186 0.051306643 0.06201251 -0.22265969 0.16713569 0.06954605 0.25147063 0.08973463
-0.109036274 0.025778152 -0.040376525 -0.07041711 -0.10312724 0.018707063 -0.049821984 0.05237684
-0.044295654 0.21085227 -0.0844026 -0.17243436 -0.11532024 -0.121167175 -0.056627076 0.09119817
-0.16461365 -0.105719574 -0.20937152 0.074416645 -0.016750304 0.31351712 0.28164327 -0.09804917
0.14059551 -0.11917961 -0.06552752 -0.037220195 -0.149616 0.07369686 -0.070730545 0.12950428
0.012321595 0.03396266 -0.08558107 -0.0012133638 0.034889884 0.025196014 0.07990099 0.048840776
-0.011028911 0.21405244 -0.07843746 -0.06115928 -0.15117374 -0.05454065 -0.15861946 -0.2686721
-0.034162764 0.020253034 0.0062595964 -0.02178246 0.09655379 0.23382026 0.0484614 0.0016951046
0.25581643 0.030180532 0.113383844 -0.08494503 -0.087676294 -0.26784384 -0.051732544 -0.25387356
-0.21037427 -0.16814841 -0.015623191 0.04254865 0.37890017 0.051157825 0.040378504 -0.019154474
0.0014372601 -0.05961809 0.24791007 -0.03594066 -0.020874992 -0.09358921 -0.13409051 0.16247132
-0.032269202 0.011833948 -0.100312844 -0.05436991 0.11537667 0.1143755 -0.14625649 -0.14255923
-0.009103803 -0.04108834 -0.04270908 -0.03258232 -0.031501107 -0.06279742 -0.05923272 0.0012745413
-3.120262e-05 -0.02893357 0.0058682305 -0.038772218 -0.00831474 0.0072162277 -0.049256697 -0.041131616
-0.04284867 -0.03788039 -0.105215825 -0.07116156 0.053984046 -0.003516284 0.032228477 -0.08388237
-0.045456644 0.012386553 0.016108666 0.020111294 -0.04383369 -0.06126639 0.014014987 0.0061617293
-0.027101617 -0.017356286 0.0043006963 0.01798852 -0.04163376 -0.039134115 -0.09211254 -0.07815785
-0.023866778 -0.06722636 -0.067631125 -0.020025339 0.0074738995 -0.11626034 -0.01262112 0.021270758
-0.027127756 -0.029171549 -0.07152758 0.0054681646 -0.025898617 -0.03808277 0.002153574 0.02919519
-0.016098289 -0.012545328 -0.07311885 0.035053518 -0.0871728 -0.0008974003 -0.082743265 -0.016836958
-0.04486285 -0.022063928 -0.05077945 0.006472223 -0.07310279 -0.05366205 -0.019137481 -0.09698012
-0.045579933 -0.07831121 -0.08048456 -0.03540965 0.031423222 -0.030972626 -0.0036732366 -0.08104461
-0.11200152 -0.073274456 -0.007532951 0.057102576 -0.013056552 -0.0121545 -0.01606396 -0.05209209
-0.11729957 -0.013203817 -0.040802233 -0.0028610476 -0.060549404 -0.05037127 -0.07852085 -0.0059673875
-0.08208741 -0.058960106 -0.07122172 -0.02051512 -0.03649439 -0.019389095 -0.036505044 -0.11019555
-0.046331316 -0.044260044 0.058389895 -0.07044655 0.06179835 -0.08316908 -0.055314235 -0.03620221
-0.0148689225 -0.02559748 -0.0354645 -0.04090661 -0.08385055 -0.006052277 -0.057642527 -0.12590662
-0.019597298 -0.083949015 0.017926212 -0.015814636 -0.067978725 -0.08662424 -0.06991357 -0.05044826
00000000: 6479 17bd 3f7b 0c3e 239e 0a3d 2ec2 7abb
00000010: 5b48 06be 853d 30bd 6752 383e cbbb d3bd
00000020: 8c87 f53a 62f1 ddbd 8648 62bd 87fe 00bc
00000030: 7cdb 973c 5914 92be 6ad1 bebb bb29 2abe
00000040: d2b5 893e a4ce 193e fcf0 ec3d aa1c f63d
00000050: 2657 2ebc 4eac f0bc 8eb0 fbbd 60de 49be
00000060: 8c21 f5bd f1a2 113d 40d6 05bd d3ed 48be
00000070: 26bd e7bc 597f f2bd a7f8 26bc a7a1 a8bd
00000080: 5d9d 113e ea26 523d d400 7e3d e700 64be
00000090: 9e25 2b3e 296e 8e3d c2c0 803e cac6 b73d
000000a0: 694e dfbd b42c d33c db61 25bd d936 90bd
000000b0: 6034 d3bd 8e3f 993c 2312 4cbd 1989 563d
000000c0: 5c6f 35bd a8e9 573e 45db acbd a292 30be
000000d0: 052d ecbd 7f26 f8bd cbf1 67bd 1bc6 ba3d
000000e0: 7b90 28be 8183 d8bd 7d65 56be c167 983d
000000f0: ef37 89bc 5185 a03e 8c33 903e 01ce c8bd
00000100: 45f8 0f3e 7014 f4bd 4b33 86bd 3474 18bd
00000110: f034 19be 61ee 963d 2ddb 90bd c59c 043e
00000120: 84e0 493c 6e1c 0b3d 2145 afbd bc09 9fba
00000130: b2e8 0e3d df67 ce3c 21a3 a33d 440d 483d
00000140: 9bb2 34bc 9030 5b3e d2a3 a0bd 2782 7abd
00000150: 4acd 1abe 0466 5fbd 246d 22be 648f 89be
00000160: 41ee 0bbd b1e9 a53c 4d1d cd3b 2171 b2bc
00000170: febd c53d 946e 6f3e 767f 463d 462e de3a
00000180: 5ffa 823e 2a3d f73c ca35 e83d a9f7 adbd
00000190: a18f b3bd d422 89be 81e5 53bd b7fb 81be
000001a0: 5a6c 57be 192f 2cbe 6af8 7fbc 7e47 2e3d
000001b0: 34ff c13e de8a 513d ee63 253d d8e9 9cbc
000001c0: 7262 bc3a 1932 74bd 23dc 7d3e 8336 13bd
000001d0: 0802 abbc b3ab bfbd 064f 09be e25e 263e
000001e0: b62c 04bd 2de3 413c d270 cdbd fcb2 5ebd
000001f0: 9b4a ec3d b43d ea3d 43c4 15be 0cfb 11be
00000200: 1e28 15bc 3f4c 28bd b7ef 2ebd 0a75 05bd
00000210: 4e07 01bd ef9b 80bd 029e 72bd 820e a73a
00000220: 8fdf 02b8 1806 edbc 494a c03b 9ecf 1ebd
00000230: 8c3a 08bc 1b76 ec3b 64c1 49bd a079 28bd
00000240: 1682 2fbd 7828 1bbd 657b d7bd 27bd 91bd
00000250: 601e 5d3d 7571 66bb 0202 043d 85ca abbd
00000260: bf30 3abd f8f0 4a3c 52f6 833c 71c0 a43c
00000270: f58a 33bd 77f2 7abd 1e9f 653c 55e8 c93b
00000280: 3604 debc c52e 8ebc dbec 8c3b a95c 933c
00000290: 2988 2abd 184b 20bd 80a5 bcbd 3911 a0bd
000002a0: 4384 c3bc f9ad 89bd 3082 8abd 2e0c a4bc
000002b0: 9de7 f43b e719 eebd d0c8 4ebc 0340 ae3c
000002c0: 073b debc 2cf9 eebc 0d7d 92bd 4a2e b33b
000002d0: 5629 d4bc aefc 1bbd fa22 0d3b c02a ef3c
000002e0: 8fe0 83bc eb8a 4dbc 56bf 95bd 4794 0f3d
000002f0: a787 b2bd 843f 6bba 4d75 a9bd a9ed 89bc
00000300: 1cc2 37bd 69bf b4bc 1dfe 4fbd f114 d43b
00000310: eab6 95bd bdcc 5bbd 35c6 9cbc 839d c6bd
00000320: 06b2 3abd a161 a0bd 17d5 a4bd b609 11bd
00000330: a3b5 003d 4eba fdbc afba 70bb b7fa a5bd
00000340: 0e61 e5bd eb10 96bd f9d6 f6bb 64e4 693d
00000350: 26eb 55bc ab23 47bc 9198 83bc 845e 55bd
00000360: c23a f0bd d354 58bc 3e20 27bd 6a80 3bbb
00000370: a702 78bd 1b52 4ebd 8acf a0bd 138a c3bb
00000380: 721d a8bd 2780 71bd b1dc 91bd 530f a8bc
00000390: 247b 15bd e1d5 9ebc 5086 15bd 34ae e1bd
000003a0: e8c5 3dbd 054a 35bd 3e2a 6f3d 4846 90bd
000003b0: 4420 7d3d 8d54 aabd 2e91 62bd c548 14bd
000003c0: c89c 73bc ceb1 d1bc 3943 11bd b18d 27bd
000003d0: d6b9 abbd 2e52 c6bb 921a 6cbd aaed 00be
000003e0: 838a a0bc 76ed abbd fed9 923c b28d 81bc
000003f0: 6e38 8bbd 0d68 b1bd d92e 8fbd d6a2 4ebd

conv3.lin_l.weight f4 [64, 128]
-0.02848047 0.07710923 0.21155475 0.0673172 0.004637008 -0.056949064 -0.064562514 0.038057137
0.037243024 -0.09660787 9.412731e-05 0.003168585 -0.07865351 0.17105368 -0.077886015 0.03363768
-0.19607492 0.021253694 0.013133754 -0.012656877 0.00036428665 0.00063039723 0.0007095457 0.085076734
-0.009578291 0.020777008 -0.03663387 0.094412185 0.08682681 -0.006004472 -0.014447127 -0.07085355
0.17455557 -0.1995251 -0.090823635 -0.07539137 0.07968314 -0.022602782 -7.090194e-05 -0.12091455
0.0009818433 0.14629906 -0.012690501 0.12390821 -1.6002727e-05 0.018309414 0.08869113 0.10596766
0.08402565 0.2945686 0.009538363 0.0056268102 -0.08238326 -0.06659553 0.1023707 0.033096507
0.102507725 0.0046548108 0.10875905 0.00016577067 -0.1377879 0.1147434 -1.4468285e-05 -0.17941172
0.06702615 -0.05456975 -0.10540972 -0.0006967419 -5.286017e-05 -0.0019269781 -3.749665e-05 -0.049700394
-0.00014387652 0.06721756 0.0027872573 -0.047944367 -0.008453845 0.00020011733 0.01519931 -0.00023972365
0.17805 0.084997326 0.03873025 -0.00025170555 0.031141657 -0.00084362796 0.07905324 0.001040999
0.34399474 -0.00016208876 -0.07036162 0.065806456 -0.014810096 0.119483344 -0.25604746 0.067422815
-0.20418844 7.6349344e-05 0.014786721 0.0076839644 0.0042249463 0.0001372523 0.062383562 -0.022557199
0.04774387 -0.02353658 0.02280495 -0.010827588 0.094489194 -0.00018463744 -0.032815695 -0.09092188
-0.06226932 -0.013335954 -0.055352073 0.21443513 -0.08465166 -0.063997164 -0.037047926 -0.1093477
-0.14075871 0.012417561 -0.05647937 0.101738945 -0.035329536 0.06369976 -0.00033795318 -0.04663602
-0.081397705 -0.08276889 0.18062851 0.044666708 -0.059770316 -0.08603077 0.1345349 -0.073531985
0.030080039 0.037002698 0.0005007681 0.14128496 -0.079071626 0.15216771 0.019092977 0.17336902
-0.034707397 0.17613775 0.033696603 0.009646374 -0.00026945476 -6.1134844e-05 -0.00024812686 0.04851942
0.00056941283 0.056842063 0.103899665 0.016012672 -0.003578378 0.07485225 0.014413093 -0.060788646
0.20425193 -0.03614106 0.015970444 0.09743024 -0.14590754 0.13699287 0.25002292 0.21767206
-0.009296795 0.09659346 0.11877461 0.021944927 -0.022057576 0.08890223 0.042801417 -0.18548255
0.04109661 0.017047046 0.031685326 0.06217529 0.029177016 -0.06460015 0.055310097 -0.09891996
-0.11357734 -0.01593061 -0.007748545 9.367944e-05 0.04933615 -0.021884035 9.421082e-05 -0.05582272
-0.0010068131 -0.1098644 0.18496493 0.0003547853 -9.948417e-05 -0.015295536 1.3531536e-05 -0.07876371
0.00026878456 0.06259534 0.029086007 -0.057798542 0.115417846 0.00020157546 -0.056033596 -0.00039556887
0.18171261 0.16901672 0.14731772 -0.0002275742 0.13710615 0.0006539694 0.07393158 0.09085309
0.1721178 -1.9890032e-05 -0.07230147 0.15495674 0.004792287 0.11382337 -0.0074984287 -0.13635075
-0.09993014 0.00016592142 0.17013958 -0.10809296 0.12086736 2.6898748e-05 -0.22037683 -0.06305986
0.03420169 0.067277364 0.03257981 0.12235713 0.0018138819 0.00037033323 -0.14443067 0.11942511
0.09747658 0.04243829 0.2572112 0.06445656 0.011411526 0.13518213 0.29855153 -0.13428175
0.17995693 0.037689548 -0.0044121426 -0.07589142 0.06859893 -0.00747794 8.415455e-05 -0.28801045
00000000: e04f e9bc 72eb 9d3d cfa1 583e 9add 893d
00000010: 0bf2 973b 6c43 69bd 5a39 84bd cde1 1b3d
00000020: 248c 183d 59da c5bd 3766 c538 09a8 4f3b
00000030: 1715 a1bd b228 2f3e b482 9fbd aac7 093d
00000040: ddc7 48be 3a1c ae3c f52e 573c ca5e 4fbc
00000050: bafd be39 3e41 253a ce00 3a3a b63c ae3d
00000060: 44ee 1cbc 8b34 aa3c 660d 16bd 2d5b c13d
00000070: 41d2 b13d 29c1 c4bb a4b3 6cbc ab1b 91bd
00000080: b2be 323e 4f50 4cbe be01 babd ca66 9abd
00000090: ea30 a33d 7829 b9bc 30b1 94b8 0ca2 f7bd
000000a0: 32b1 803a 6ccf 153e d2eb 4fbc 96c3 fd3d
000000b0: 983d 86b7 a0fd 953c b2a3 b53d 9305 d93d
000000c0: a415 ac3d b2d1 963e cb46 1c3c 1b61 b83b
000000d0: 8eb8 a8bd 3d63 88bd bba7 d13d 3490 073d
000000e0: 92ef d13d 6287 983b 11bd de3d bad2 2d39
000000f0: 4518 0dbe 96fe ea3d d0bc 72b7 b5b7 37be
00000100: 0245 893d 8884 5fbd 0de1 d7bd 8fa5 36ba
00000110: 2db6 5db8 a892 fcba b945 1db8 a492 4bbd
00000120: 8fdd 16b9 5ca9 893d 6baa 363b 5061 44bd
00000130: ff81 0abc 96d6 5139 8706 793c 545e 7bb9
00000140: bd52 363e 1413 ae3d 9ca3 1e3d 59f7 83b9
00000150: ca1c ff3c ea26 5dba aae6 a13d 2172 883a
00000160: 1420 b03e 5ff6 29b9 c119 90bd 89c5 863d
00000170: 0ba6 72bc afb3 f43d a718 83be f914 8a3d
00000180: c616 51be be1d a038 0144 723c c4c9 fb3b
00000190: 6b71 8a3b 62eb 0f39 e885 7f3d e0c9 b8bc
000001a0: 148f 433d c9cf c0bc 72d1 ba3c 3266 31bc
000001b0: 8d83 c13d 3c9b 41b9 c069 06bd 4035 babd
000001c0: 1d0e 7fbd 0c7f 5abc dbb8 62bd e294 5b3e
000001d0: d95d adbd f210 83bd 91bf 17bd b0f1 dfbd
000001e0: 0d23 10be 0773 4b3c e956 67bd 825c d03d
000001f0: b4b5 10bd 0575 823d 4f2f b1b9 6905 3fbd
00000200: d7b3 a6bd bc82 a9bd aef6 383e 70f4 363d
00000210: b8d1 74bd e630 b0bd 84c3 093e f097 96bd
00000220: 6a6a f63c 2490 173d fa45 033a 01ad 103e
00000230: 4ef0 a1bd dad1 1b3e e068 9c3c a687 313e
00000240: 5829 0ebd 745d 343e 7305 0a3d d30b 1e3c
00000250: 9b45 8db9 8535 80b8 0617 82b9 4dbc 463d
00000260: a644 153a 39d3 683d 59c9 d43d 022d 833c
00000270: 3883 6abb 234c 993d e524 6c3c 84fd 78bd
00000280: 6b27 513e a608 14bd 73d4 823c 8189 c73d
00000290: c968 15be dc47 0c3e 0103 803e 6de5 5e3e
000002a0: 9651 18bc cbd2 c53d 1a40 f33d d9c5 b33c
000002b0: 17b2 b4bc 5f12 b63d 8a50 2f3d 23ef 3dbe
000002c0: eb54 283d 3fa6 8b3c 79c8 013d 84ab 7e3d
000002d0: a304 ef3c 154d 84bd d78c 623d 8c96 cabd
000002e0: 3d9b e8bd e980 82bc 82e7 fdbb c475 c438
000002f0: b414 4a3d 2646 b3bc 0d93 c538 5da6 64bd
00000300: 0bf7 83ba 9600 e1bd 7267 3d3e 7a02 ba39
00000310: 28a2 d0b8 219a 7abc 8105 6337 de4e a1bd
00000320: a7eb 8c39 fc31 803d c745 ee3c 2abe 6cbd
00000330: 3160 ec3d 005e 5339 7c83 65bd 5b64 cfb9
00000340: df12 3a3e b812 2d3e 75da 163e fca0 6eb9
00000350: 8e65 0c3e 256f 2b3a 7169 973d 2f11 ba3d
00000360: a63f 303e 85d9 a6b7 cb12 94bd fbac 1e3e
00000370: 9e08 9d3b 3a1c e93d 61b5 f5bb 889f 0bbe
00000380: 2ca8 ccbd 31fb 2d39 1239 2e3e d85f ddbd
00000390: 4e89 f73d 9fa4 e137 77aa 61be 8725 81bd
000003a0: 1217 0c3d b7c8 893d 6872 053d 6096 fa3d
000003b0: c7bf ed3a 4929 c239 a2e5 13be 2795 f43d
000003c0: cda1 c73d c6d3 2d3d 30b1 833e cd01 843d
000003d0: 69f7 3a3c 2f6d 0a3e bfdb 983e 2881 09be
000003e0: a146 383e 5b60 1a3d bc93 90bb f66c 9bbd
000003f0: 997d 8c3d 8209 f5bb 217c b038 1b76 93be

conv3.lin_l.bias f4 [64]
-0.04383934 0.06644401 -0.04504623 -0.031807978 0.039810423 0.052057516 -0.029040918 0.016134797
-0.015056486 0.056094576 -0.017601617 0.029001033 0.040912263 -0.016809696 -0.052810807 -0.0039575202
-0.02335094 0.048327763 0.014974958 -0.01722777 0.033467215 -0.03963227 0.018213263 0.02568015
0.019626094 -0.016409768 0.02524146 -0.03365062 -0.06342848 0.041672494 0.055499315 -0.051700916
0.059425745 -0.03448412 0.07874932 0.0687209 -0.040450644 0.025927905 0.0059563983 -0.043424837
-0.043964196 -0.009535941 -0.025868706 -0.064522885 -0.0020619095 0.019781262 0.040742844 0.005754973
0.041181605 -0.008909113 0.04345199 -0.023754762 -0.011633172 0.0033324368 0.030647812 0.00454475
-0.072397456 -0.0022734187 -0.061072048 -0.004413704 0.018709186 0.048488777 -0.064882234 -0.026643531
00000000: e190 33bd cc13 883d 6582 38bd 1549 02bd
00000010: 4110 233d 433a 553d 38e7 edbc 1f2d 843c
00000020: 7baf 76bc 6dc3 653d 4431 90bc 9393 ed3c
00000030: 9e93 273d 7db4 89bc 2550 58bd 16ae 81bb
00000040: 784a bfbc 55f3 453d 8759 753c 4121 8dbc
00000050: eb14 093d 7255 22bd fb33 953c 2e5f d23c
00000060: e7c6 a03c c76d 86bc 2ec7 ce3c 3cd5 09bd
00000070: cae6 81bd c7b0 2a3d 4053 633d 57c4 53bd
00000080: 6968 733d 383f 0dbd 5347 a13d 8bbd 8c3d
00000090: 93af 25bd c266 d43c e42d c33b 3ede 31bd
000000a0: cd13 34bd a33c 1cbc 9cea d3bc 9324 84bd
000000b0: 1a21 07bb 500c a23c f8e1 263d 3694 bc3b
000000c0: 0bae 283d 87f7 11bc b7fa 313d 5999 c2bc
000000d0: 0f99 3ebc 0365 5a3b 1f11 fb3c 20ec 943b
000000e0: 1e45 94bd a3fd 14bb af26 7abd d5a0 90bb
000000f0: 0244 993c 2b9c 463d fae0 84bd 8943 dabc

conv3.lin_r.weight f4 [64, 128]
-0.100420944 -0.03810047 0.025385141 -0.0007098196 0.12688796 0.085357316 0.06299426 0.025047492
0.12322717 0.09097512 0.0003233386 -0.14832662 -0.008285965 -0.1058562 -0.093025856 -0.03336867
-0.07387129 -0.09397256 -0.017868469 0.16270852 7.800722e-05 7.610563e-05 -0.00439258 0.13746823
0.001499153 0.03876091 -0.02143174 0.11543939 -0.07558187 0.044235837 -0.010411813 0.10844279
0.03167729 -0.098228686 0.06960993 -0.20560855 0.14849757 0.04086457 0.08685312 -0.06663642
0.0017735967 -0.043973263 0.17805742 0.06265077 0.049492035 -0.0830006 0.047036827 0.038390107
-0.050278235 0.06669879 0.023899078 0.028093213 0.21772967 0.06359816 -0.15116325 -0.13134918
0.07320167 0.00673377 0.009157812 -0.06500914 -0.047032844 0.10781944 0.001229409 -0.038423717
0.028967481 -0.05231075 0.08324218 0.0003430438 -5.833177e-05 0.1304125 -0.00036949827 0.074843
-3.9404873e-05 0.32003868 -0.062914334 0.11287821 -0.042134672 0.00033901757 -0.08759231 -0.0010575372
0.007275258 -0.07972755 -0.041993942 -0.00027482305 -0.12819809 0.08603804 0.052526 0.064352944
0.1380206 -1.5604011e-05 0.18489899 0.07764215 -0.09516447 -0.015106864 -0.14931579 0.18136732
-0.05089343 0.00023137638 0.053846747 -0.031325493 -0.059432726 -8.503445e-05 0.07229051 -0.044717427
0.048818856 -0.07281859 0.0717075 -0.030868867 0.06118692 -0.00021759198 -0.063360974 -0.08415061
0.023243956 0.1318728 0.101196796 -0.06383095 0.07649429 -0.069398955 -0.03749866 -0.06286882
0.04266911 -0.09044533 -0.050330944 0.036789343 -0.11427994 -0.19376382 3.1205494e-05 0.023386236
-0.0105712125 0.020342845 0.041934494 0.103668705 -0.08866355 -0.07117669 0.028370244 -0.06850617
0.07174568 -0.012845019 -0.00014842683 -0.075875886 -0.06933133 0.11955508 -0.15622278 0.06945777
0.022225762 0.02483386 -0.0072668185 0.011501431 4.8706497e-05 -0.0002699652 0.00040334655 -0.10547636
-0.00030764838 -0.07356466 -0.16960332 0.011822798 -0.10127443 -0.09531577 0.002642218 -0.07949948
-0.113486834 0.13396418 -0.06174393 -0.056084115 -0.04891727 0.025330761 -0.020198457 -0.028184438
-0.0028141732 -0.012586568 0.12313932 -0.0880697 -0.05882142 -0.030412918 -0.0066822805 -0.303033
0.05750012 -0.06642876 -0.063486025 -0.06491512 0.0020509125 0.04532337 -0.045532264 -0.07412285
-0.09686579 0.043281708 0.013718809 0.052390378 -0.07583583 -0.0136424005 -0.0015437993 0.08132358
-0.00818182 -0.11255333 -0.16010712 0.00037567408 -0.00019250326 -0.1585982 0.0001648461 -0.121975504
-0.00012977616 0.24231711 -0.027508399 0.036017932 0.04481579 0.0004000875 -0.009231524 -0.014042234
-0.04361016 -0.21579385 0.054703206 -9.95924e-06 0.015879877 -0.046092395 -0.19929007 -0.123952895
0.0957492 -0.000211608 -0.031725816 0.043641154 0.056089263 -0.057656515 -0.009921553 -0.14400987
-0.03291689 -3.7056787e-05 0.12513651 0.12151985 0.12689833 -0.00040372708 -0.1883003 -0.09894869
-0.019307978 0.187568 -0.070374526 -0.20588188 -0.026835155 -0.00032713314 -0.06970543 0.1444371
-0.067197636 -0.13165466 -0.078105666 -0.0038157606 -0.051755775 0.08228682 0.076804966 -0.075840384
0.030817386 -0.055956215 0.08280186 0.050068017 -0.046317775 0.0021321885 -7.560428e-05 -0.069871016
00000000: 7fa9 cdbd 3d0f 1cbd 80f4 cf3c 3013 3aba
00000010: ebee 013e d1cf ae3d 2203 813d 6630 cd3c
00000020: 875e fc3d 2a51 ba3d c685 a939 efe2 17be
00000030: dbc1 07bc 23cb d8bd 5784 bebd 96ad 08bd
00000040: d549 97bd af74 c0bd e560 92bc 109d 263e
00000050: cf97 a338 e69a 9f38 a2ef 8fbb 79c4 0c3e
00000060: 3a7f c43a c3c3 1e3d 9e91 afbc 7d6b ec3d
00000070: abca 9abd a330 353d 4f96 2abc 4117 de3d
00000080: 0cc0 013d 1f2c c9bd a78f 8e3d 0c8b 52be
00000090: bf0f 183e 9b61 273d 0ce0 b13d ad78 88bd
000000a0: 0878 e83a 4f1d 34bd af54 363e 0c4f 803d
000000b0: 29b8 4a3d 38fc a9bd b0a9 403d f23e 1d3d
000000c0: 8df0 4dbd 6099 883d 00c8 c33c bd23 e63c
000000d0: 87f4 5e3e c13f 823d 8aca 1abe 6680 06be
000000e0: c2ea 953d f5a6 dc3b a60a 163c 8323 85bd
000000f0: 83a5 40bd 70d0 dc3d 1f24 a13a 3062 1dbd
00000100: 364d ed3c cc43 56bd e07a aa3d 8fda b339
00000110: 43a9 74b8 db8a 053e 38b9 c1b9 4947 993d
00000120: a946 25b8 1cdc a33e 3bd9 80bd b12c e73d
00000130: 6895 2cbd 2bbe b139 9963 b3bd 0f9d 8aba
00000140: 4a65 ee3b 3348 a3bd d701 2cbd 2016 90b9
00000150: 5c46 03be b634 b03d 8125 573d 7acb 833d
00000160: 4655 0d3e 5ce5 82b7 2956 3d3e d902 9f3d
00000170: 97e5 c2bd c882 77bc 3de6 18be 5bb8 393e
00000180: a175 50bd a09d 7239 688e 5c3d 294f 00bd
00000190: bb6f 73bd 8654 b2b8 0c0d 943d 9f29 37bd
000001a0: 48f6 473d ea21 95bd 62db 923d b5e0 fcbc
000001b0: 239f 7a3d 6729 64b9 66c3 81bd 2857 acbd
000001c0: 1c6a be3c aa09 073e 4440 cf3d cdb9 82bd
000001d0: 0aa9 9c3d 0a21 8ebd 3298 19bd 5ec1 80bd
000001e0: cec5 2e3d 673b b9bd d227 4ebd 6cb0 163d
000001f0: 9a0b eabd 066a 46be a5e2 0238 7e94 bf3c
00000200: e132 2dbc 0aa6 a63c 81c3 2b3d 4250 d43d
00000210: 3c95 b5bd 16c5 91bd b768 e83c f64c 8cbd
00000220: 66ef 923d ea73 52bc 06a3 1bb9 d164 9bbd
00000230: 96fd 8dbd 4bd9 f43d ddf8 1fbe e03f 8e3d
00000240: cd12 b63c 6170 cb3c 7e1e eebb 8070 3c3c
00000250: 344a 4c38 1e8a 8db9 4278 d339 fd03 d8bd
00000260: de4b a1b9 12a9 96bd 7eac 2dbe 69b4 413c
00000270: f868 cfbd ea34 c3bd 1029 2d3b a0d0 a2bd
00000280: c96b e8bd e82d 093e 34e7 7cbd 75b8 65bd
00000290: 7a5d 48bd 7582 cf3c 3c77 a5bc 0de3 e6bc
000002a0: fe6d 38bb e437 4ebc 7830 fc3d e35d b4bd
000002b0: bbee 70bd 8324 f9bc 08f7 dabb 2427 9bbe
000002c0: 3f85 6b3d cd0b 88bd f604 82bd 38f2 84bd
000002d0: 9a68 063b ffa4 393d 0a80 3abd b9cd 97bd
000002e0: 9261 c6bd 2948 313d dbc4 603c 4b97 563d
000002f0: d14f 9bbd 6084 5fbc 4f59 caba fa8c a63d
00000300: 0a0d 06bc 5c82 e6bd 1ff3 23be 1ff6 c439
00000310: b3da 49b9 9167 22be 8ada 2c39 4bce f9bd
00000320: 8614 08b9 fa21 783e 4b59 e1bc 8a87 133d
00000330: c390 373d d6c2 d139 d13f 17bc 6611 66bc
00000340: 91a0 32bd 10f9 5cbe 7810 603d 9c16 27b7
00000350: 8416 823c 61cb 3cbd b212 4cbe 04db fdbd
00000360: 2818 c43d 17e3 5db9 eef2 01bd 11c1 323d
00000370: dbbd 653d 3d29 6cbd 028e 22bc 5377 13be
00000380: dcd3 06bd 6c6d 1bb8 c923 003e 66df f83d
00000390: a3f1 013e 55ab d3b9 cbd1 40be 9ca5 cabd
000003a0: c42b 9ebc d311 403e 8520 90bd b3d2 52be
000003b0: 66d5 dbbc 1183 abb9 b8c1 8ebd 52e7 133e
000003c0: ea9e 89bd 7bd0 06be ddf5 9fbd d711 7abb
000003d0: ddfd 53bd fe85 a83d ec4b 9d3d 3452 9bbd
000003e0: be74 fc3c 5832 65bd 0694 a93d 1f14 4d3d
000003f0: b5b7 3dbd 30bc 0b3b bd8d 9eb8 8918 8fbd
